sine_wave_generator.tflite (tflite, 3196 bytes, 5 tensors)

sequential_1/dense_4/BiasAdd/ReadVariableOp f4 [16]
000000 07 30 94 bd d5 b1 f3 3e 48 e1 ae be 00 00 00 00
       -0.07235723 0.47596613 -0.3415625 0.0
000010 8d 1c 10 3f 0b c3 70 3e 52 1c a8 3e 4f 84 f0 3e
       0.56293565 0.23511903 0.32834107 0.46975943
000020 73 85 9b be c6 82 ec be 3f ff 23 be 78 cf 18 bc
       -0.3037525 -0.46193522 -0.16015337 -0.009326808
000030 2b e2 5e 3e 1b 39 7d 3e 00 00 00 00 fa cb 4e 3f
       0.21765964 0.24728815 0.0 0.80779994

sequential_1/dense_3/BiasAdd/ReadVariableOp f4 [16]
000000 00 00 00 00 af 0e 45 3f 00 00 00 00 61 91 d3 be
       0.0 0.7697553 0.0 -0.41321853
000010 00 00 00 00 cc 6c 9c bf 00 00 00 00 7b d3 87 3d
       0.0 -1.2220702 0.0 0.066321336
000020 fe d7 9b be c2 09 52 be 00 00 00 00 ea 7f 3e 3e
       -0.30438226 -0.20511535 0.0 0.18603483
000030 00 00 00 00 00 00 00 00 00 00 00 00 c7 3a a6 3d
       0.0 0.0 0.0 0.0811668

sequential_1/dense_3/MatMul f4 [16, 1]
000000 00 80 2a bd ba 7e ab 3e d9 38 cd be 90 ed 16 3e
       -0.041625977 0.33495122 -0.40082434 0.1473906
000010 00 5f 89 bd f0 99 10 3f fb ce d9 be 7d 02 8f 3e
       -0.06707573 0.5648489 -0.42540726 0.27931586
000020 cd af 48 3e 6b 6e bc 3e 19 72 00 bf aa 6d e1 3e
       0.19598313 0.36802992 -0.501741 0.4402898
000030 80 9d c0 be 60 d7 95 bc 10 99 b6 be 1c 99 0b 3e
       -0.37620163 -0.018291175 -0.35663652 0.13632625

sequential_1/dense_4/MatMul f4 [16, 16]
000000 44 cc a4 be e1 f9 05 3d a3 fc 9b 3e 65 74 68 be
       -0.32187092 0.032709006 0.30466184 -0.22700651
000010 9c da ce be a2 62 a1 be 95 ae b5 3e eb f7 ba 3a
       -0.4040116 -0.31520563 0.35484758 0.0014264559
000020 39 59 60 3e 73 90 4f bf eb a1 78 be 5d 79 c6 3d
       0.21909036 -0.81079787 -0.24280517 0.09691117
000030 13 ea b4 3e 5f e2 8f 3e 36 17 54 3e d1 04 94 3e
       0.35334834 0.28102395 0.2071198 0.28909925
000040 b4 04 d0 3d 99 2f bf bd 26 e1 1b 3e 0d 18 b7 3e
       0.10157147 -0.093352504 0.15222606 0.35760537
000050 4c 1d e2 bd 23 5b b3 be 14 68 00 be 5b 72 87 be
       -0.11040744 -0.3503047 -0.12539703 -0.26454434
000060 78 28 ba 3e 3b ee 8f be 8c eb c9 bd a2 9e 96 be
       0.36359 -0.28111443 -0.0985938 -0.29417902
000070 b5 b3 88 be 78 ae 0f bd 20 11 97 bd 80 7b 33 3f
       -0.26699606 -0.035078496 -0.07376313 0.7011032
000080 5c dc e2 3d 71 94 a0 be 50 f5 22 3d 65 40 96 bc
       0.110771865 -0.31363252 0.03978473 -0.018341253
000090 36 7e 24 3e 76 67 0e 3f 14 85 1f be c0 3c 67 be
       0.1606377 0.5562662 -0.15578109 -0.22581768
0000a0 b3 fc 61 3d 14 cd 82 bd c9 6d ae 3e a7 4e b4 3e
       0.055172633 -0.06386772 0.34068134 0.35216257
0000b0 73 68 bf 3e 55 72 ae be 62 15 bb be 8c 8b c2 3d
       0.37384376 -0.34071603 -0.3653975 0.09499273
0000c0 4d da 8d 3e 44 f1 c2 be d9 64 bd 3e 3e 0d ad be
       0.27705613 -0.38074696 0.36991003 -0.33799165
0000d0 81 32 8a be 71 c9 c4 be e1 fc 8f 3e 22 d7 42 3e
       -0.26991656 -0.38434938 0.2812262 0.19027379
0000e0 ca 61 79 3e 5e 47 b6 be d7 b1 ce be c5 2a 90 3e
       0.2435371 -0.35601324 -0.40370056 0.2815763
0000f0 48 47 13 bd 50 a4 d4 be 5a 9d 2f be 40 2d f5 bb
       -0.03595665 -0.4153161 -0.17149869 -0.007482201
000100 d0 d0 6d bd 20 64 32 be e7 da 96 3e f0 8f 07 be
       -0.058060467 -0.17421007 0.29463884 -0.13238502
000110 54 6e bc 3d fb 21 8a be 6c 96 ca 3d 4e db fb be
       0.09200731 -0.2697905 0.09891972 -0.49190754
000120 96 6f 19 3e 6b a6 61 3e 96 04 18 be 7a 1b 2b bf
       0.14983973 0.2203614 -0.148455 -0.668388
000130 50 82 bd 3c 58 a0 37 be dd 14 61 be 33 8f 31 3f
       0.023133427 -0.1793226 -0.21980615 0.6935913
000140 8d 93 dc 3e 12 bd 43 be 46 35 27 3e 11 f5 cf be
       0.43081322 -0.19115093 0.16328916 -0.40616658
000150 7c 62 da be bd 1b 8c be a0 f7 3d bc d1 d6 93 3e
       -0.42653263 -0.27364913 -0.011594683 0.2887483
000160 34 fb 6f 3d 16 9c ca 3d 26 0d 6c 3e bd 53 bd 3e
       0.058589175 0.09893052 0.2305189 0.3697795
000170 93 50 d3 3e 4f b7 d9 be 00 a2 90 bb 93 1c d9 bd
       0.4127241 -0.42522666 -0.004413843 -0.10601153
000180 60 87 05 3c b5 a8 9f be 1c 89 f3 3d e6 e4 fb 3d
       0.008149952 -0.311834 0.11891386 0.12299518
000190 ce 72 02 3e f0 fc 3c 3e 8a a9 63 3e 2c bd cd bd
       0.12739107 0.18455863 0.22232643 -0.10045847
0001a0 a8 c5 10 3d 96 d9 ba 3d f7 a2 be be 05 ef b4 bd
       0.03534475 0.091235325 -0.37233707 -0.08834652
0001b0 45 68 ba 3e 2a a7 00 be 78 84 d3 be 0a 48 c2 3e
       0.36407676 -0.12563768 -0.41312003 0.37945586
0001c0 b4 9d e9 3d 4f dd 92 bd ba bd b5 be 37 67 90 3e
       0.114070326 -0.071711175 -0.35496312 0.28203747
0001d0 3f 6f ac 3e c5 f9 0a be 0b 51 9e 3e 55 99 bd be
       0.33678624 -0.13571842 0.30921206 -0.37031046
0001e0 7b 9e 83 be ec e3 ab be 9c 60 c7 3d 15 19 70 be
       -0.25706849 -0.33572328 0.09735224 -0.23447068
0001f0 76 52 26 be 54 4a 2b be 19 0e d2 3e 41 bc 72 3e
       -0.16242394 -0.16727573 0.4102638 0.23704626
000200 b8 c5 63 3d 2d 8d bc be d0 25 95 bd d3 c4 b7 3e
       0.05560848 -0.3682646 -0.07282603 0.35892352
000210 fe c4 5e 3e 15 ae 57 3e 54 3f 4d be 02 24 14 be
       0.21754834 0.21062501 -0.20043689 -0.14466861
000220 81 39 91 3d 66 7e 13 3e 3d 98 b1 3e 6a 2c b6 3e
       0.07091046 0.14403686 0.3468646 0.3558076
000230 c2 b0 80 be 26 a5 81 be 7b e5 db 3e db 96 81 3e
       -0.25134856 -0.2532131 0.42948517 0.25310406
000240 84 6c b9 3d b9 94 6e be 5e 8f 52 be d4 a9 d3 bc
       0.09053901 -0.2329892 -0.20562503 -0.025837816
000250 e0 8a 35 bc 40 51 fb 3e 36 59 6d 3e 98 e2 50 be
       -0.011080474 0.49085426 0.23178563 -0.20398939
000260 80 97 9d 3e bc a6 3b 3e 1a 3a a5 be 06 dc 97 bd
       0.30779648 0.18325323 -0.3227089 -0.07415013
000270 cc e9 f7 3d 44 dc c9 3d f3 84 89 3e aa 5c 0e 3e
       0.1210514 0.098564655 0.26859245 0.13902536
000280 9c ab 57 be 4d 98 c3 3e b0 4a 67 bd e5 41 0b 3d
       -0.21061558 0.38202134 -0.056467712 0.03399839
000290 e7 7b d6 3e 16 ef e8 be 4f 7b af 3e 19 32 20 3e
       0.41891405 -0.45494908 0.34273764 0.1564411
0002a0 9c 2e be bd c8 58 81 be c4 cf b3 be fb 27 08 be
       -0.09286234 -0.25263047 -0.3511945 -0.13296501
0002b0 36 b7 58 be ec 8e 2d be b6 82 4d 3e cd c9 87 3e
       -0.2116364 -0.16949052 0.20069394 0.2652115
0002c0 96 b4 90 be 62 b3 af be 3d 98 db 3e 23 55 96 3e
       -0.28262776 -0.34316546 0.42889586 0.2936183
0002d0 60 d6 2e bc e2 28 c3 be cd 5d b8 be 8c e6 8b be
       -0.010671228 -0.3811713 -0.36009064 -0.2732433
0002e0 60 f9 e4 3c 3a 2a 2f 3e 9f 33 3f be 90 73 53 3d
       0.027950943 0.17105952 -0.18672036 0.05162388
0002f0 39 19 ab 3e cd 03 9b be ec df 8e be ca ef 7e 3e
       0.3341768 -0.30276337 -0.27905214 0.2489616
000300 94 a0 9b bd 04 ea 58 bd 40 04 c7 bb 99 59 f4 be
       -0.07598987 -0.05295755 -0.0060735047 -0.47724608
000310 59 e2 da 3e e7 3a c2 bc 04 33 67 be cb 1a bd 3e
       0.42750815 -0.023709727 -0.22578055 0.36934504
000320 40 b1 df be d8 a0 09 3e a4 1f c6 bd da fd 95 3e
       -0.4368992 0.13440263 -0.09674004 0.29295236
000330 31 29 4d be 06 38 8c be 98 18 39 3d 86 c1 89 be
       -0.20035245 -0.27386492 0.04518947 -0.2690546
000340 91 5a a8 be 8c a4 4b 3d aa 5b 91 be bc 5c 14 bf
       -0.32881597 0.04971747 -0.28390247 -0.57954
000350 a8 7f 4b 3d 04 9c ba be 2f b7 cb 3e e3 e3 56 3c
       0.04968229 -0.36447155 0.39788195 0.013115856
000360 eb e4 61 3e 3b 07 f4 3b 76 d8 52 3e 2d 7b df 3e
       0.22059982 0.007447151 0.20590386 0.43648663
000370 8c 67 cd bd 73 db 88 be 80 33 da bb d4 dd 62 bd
       -0.100295156 -0.26729926 -0.0066589713 -0.055387333
000380 99 de 7e be e0 ee 3a bc 55 97 b9 3e d5 f1 b9 3e
       -0.24889602 -0.011409491 0.3624827 0.36317316
000390 18 92 65 3d 3e ce 80 be da be 2f 3e ab 27 68 be
       0.05604753 -0.2515735 0.17162648 -0.22671382
0003a0 7d fa 85 be 3b da 90 3e 12 58 3d 3e 3e c5 c3 be
       -0.2616767 0.28291497 0.18490627 -0.3823642
0003b0 3c a9 9b bd 6b 47 cc 3e cf 4d a4 3e 6c 01 ab bd
       -0.07600638 0.39898238 0.32090613 -0.083498806
0003c0 3d 64 95 3e 8e ef d3 3e cd 5f d1 be a1 99 9a bf
       0.29178038 0.41393703 -0.40893403 -1.2078134
0003d0 35 58 8b 3e 78 41 26 bf ba 3d 58 3e d0 a5 ba be
       0.27215734 -0.6494365 0.21117297 -0.3645463
0003e0 5c 4c 50 bf 71 70 4e be 60 7a cd 3c 56 2f 28 3e
       -0.81366515 -0.2016008 0.025082767 0.16424307
0003f0 94 2a b5 bd 28 2a 58 be aa 04 38 3e fc 45 1b 3f
       -0.08846012 -0.21109831 0.17970529 0.6065366

sequential_1/dense_5/MatMul f4 [1, 16]
000000 9f 74 63 3f 82 ef 65 bf f2 43 75 3f 18 54 c9 3d
       0.88849825 -0.89818585 0.958068 0.09830493
000010 77 61 a3 bf 1f 7d 3f be 57 da 84 bb 68 2c 74 bf
       -1.2764119 -0.18700074 -0.0040543485 -0.9538026
000020 fc cf e9 3e 19 fb e3 3f 9d 76 1c 3f 75 55 84 3e
       0.45666492 1.7811004 0.6111849 0.2584645
000030 75 6a 02 bf 62 47 36 bf 48 65 87 be b5 fd b9 3f
       -0.5094369 -0.7120267 -0.2644446 1.453055
